starter_code/best_model.pt (torch, 14888 bytes, 4 tensors)

conv1.weight f4 [22, 128]
00000000: 5d92 633e 5f3d 0d3d 3e93 a23d d458 723d
00000010: d61e d2bc 8f20 ae3a b9b5 d03a 9c5e 1e3e
00000020: 29be 9c3d 4ca2 28bd 0d28 2d3e eeb1 59bd
00000030: 6af7 c03d ece5 f93d 1cff 303e 9e19 7bbb
00000040: ce37 163d dc46 80bc 301f 44bd dcb8 54bd
00000050: c153 233d bf14 86bd 56f0 6b3d 0c54 243c
00000060: 49d5 0ebd 9dd5 0b3c b2f3 163c 6d4d 23bd
00000070: 61c8 12bb 9c3f a7bd 8368 5a3d 8347 8ebd
00000080: bb7e 543d bf2f d9bc 051c 80bd eb36 4a3e
00000090: 1e04 5ebd c81c 0d3d 03af 843d 35b8 1fbd
000000a0: 84a5 37bc c9dc 8e3d 6e57 fabb 38d2 823d
000000b0: 02cf d03d d334 1ebd 3094 debb 2257 e4bb
000000c0: 513b 0bbc 0f08 58bd f37b a5bd ae54 543d
000000d0: 4f34 f7bc 0251 033d e863 da3d 7c52 c6bc
000000e0: 530c 47bd c0fd 703d fcda 463d 68d7 9ebc
000000f0: 658b dd3a 5dad 84bc 8a16 1ebd bb6b c0bd
00000100: 2dfa 263e a7fb 7dbd e20c 4a3d 7396 163c
00000110: 1e40 7a3b 4918 70bd aa77 3c3d 411e 4fbc
00000120: 7a72 be3d 62c1 8abd 5cbd 82bd 93bb 12bd
00000130: a7b6 85bd 3e0a 453e 56a6 963d 66e6 f63c
00000140: 139b 0c3d fb93 8dbc 7821 a0bb 1819 7d3c
00000150: e203 a23c 4604 9e3b 45c1 843d dbdb 47bd
00000160: d22d ae3b f6de 42bc 87dd cfbc bd62 adbd
00000170: f1dc 45bc a53d 433e 1842 d2bc 13c9 66bd
00000180: 0903 153e 31fa f83a 5ee8 73bd 18bd 67bd
00000190: 7665 76bc 18e5 113e fd35 36bd 39b0 91bc
000001a0: 6493 dcb9 0d5d 83bc d293 57bd 3219 cfba
000001b0: 124d 57bd 2335 073c a41a 963d 2ddf 793d
000001c0: c7e7 28bd 357c a2bd 8526 debc 8196 783d
000001d0: f271 fb3d 3083 4abd ce24 223d bcf0 adbb
000001e0: 223f 26ba 5803 33bd c683 893a ce32 cfbc
000001f0: 54c3 063b 6779 933c 82e5 803d 6487 03bd
00000200: 1744 eb3d 01b4 a9bd 3ef9 e03d f507 4abc
00000210: 02bd 46bd bacd 8e3c aa0e 203c 79bc 223d
00000220: dde9 12bd 0d5d 9bbd f23f 843d 9811 1abd
00000230: 3b45 793d 1829 e5bc 485b 8c3d 72a9 c0bc
00000240: 6980 7abb bf9a e8bb 803a b8bc aa1b ff3c
00000250: d73b c73d 2c78 5bbd 342e b43d b8d0 363c
00000260: df4e 8fbb c95c e9bc 99ea 5b3d 2c5d 25bd
00000270: 5f68 97bb 28bc 1abd 2695 48bc 9fae 05bd
00000280: cf37 6e3d 0a03 bfbc ba0e 8ebd c8c5 23bd
00000290: 96cd d4bc 47d1 85bc 5e0f fa3c fb06 203d
000002a0: 79f9 a4bb feee d23c fbca 103c f061 203c
000002b0: 5973 5b3d 2ec8 a3bd 7769 33bd 6b6d 593c
000002c0: 1ed1 ddbc 26e6 28bd 8902 fe3c 4d81 67bd
000002d0: 14a5 2bba d9b8 94bc 18f8 9a3d 1346 33bd
000002e0: cdde 91bc cdda bc3b b612 09bc 1000 bcbb
000002f0: 196e ef3b 00c2 c83a 7919 7ebd 696c d9bd
00000300: 30ed 913d 8cff 413d 96a9 32bb 13c0 763d
00000310: e083 a53c 275c 86bd 18d7 21bd 5dd5 27bc
00000320: d86c 49bd 57a9 07bd eae0 573d 2abf 74bc
00000330: c81e 70bd a101 963c 889b 633b d0aa 91bd
00000340: 9866 573d c302 40bc 2446 033c e621 0cbc
00000350: 5ab0 45bd 6ff5 a9bb 6d8f 7c3d f28a 813d
00000360: 4e15 c33b 32db 273c 5e05 d7bb c638 96bd
00000370: ee3b e6bc b31b d03d 183b 1d3c 6580 2cbd
00000380: 1368 7cbd 3e21 953c 775c d53c a333 013e
00000390: 80bd 83bc 3e96 75bd a549 3abd 0428 973d
000003a0: 9876 31bc ca5b 2b3d 32fa 64bc ab71 1bbc
000003b0: 3f83 09bc f1ed 8ebc a880 40bd e379 64bd
000003c0: 0e61 1dbd ae3c dbbc e825 e0bb 7230 673c
000003d0: 3ffe 8c3d 1ca3 a5bc 900f b33a a163 4cbc
000003e0: fac0 393c de4e 9b3b 97d7 083c 066c f8bc
000003f0: 4421 5f3d caae 073d c55f 523d 6e9c 82bd
0.22223802 0.034482356 0.079382405 0.059166744 -0.02564947 0.001328485 0.0015923298 0.15465778
0.07653458 -0.041170403 0.1690981 -0.053148203 0.094221905 0.12202057 0.17284817 -0.003831483
0.036674313 -0.015658788 -0.047881305 -0.05193411 0.039874796 -0.06546926 0.05760225 0.010029804
-0.034871373 0.008534816 0.009213375 -0.03986876 -0.0022397267 -0.081664294 0.053322326 -0.069472335
0.051878672 -0.026512025 -0.06255344 0.19747512 -0.054203145 0.034451276 0.06478693 -0.038994033
-0.011208896 0.06975705 -0.007639817 0.06387752 0.101957336 -0.038624596 -0.0067925677 -0.006968395
-0.008498029 -0.05274206 -0.08080282 0.05183857 -0.03017631 0.032059677 0.10663587 -0.024209253
-0.048595738 0.058835745 0.048548684 -0.019389823 0.0016902505 -0.016195947 -0.038595714 -0.09395548
0.16306372 -0.062007573 0.049328692 0.009191143 0.003818519 -0.05861691 0.046012558 -0.01264149
0.092991784 -0.06775166 -0.06383774 -0.035823416 -0.06528979 0.19242188 0.07355945 0.03013916
0.034327578 -0.017282477 -0.0048868023 0.015447877 0.019777242 0.004822287 0.06482176 -0.048793655
0.005315521 -0.011893978 -0.025374187 -0.084660985 -0.012076602 0.19066484 -0.025666282 -0.056344103
0.14551939 0.0018995461 -0.059547774 -0.05657682 -0.015038839 0.14247549 -0.04448508 -0.017784225
-0.00042071484 -0.016035581 -0.052631207 -0.0015800355 -0.052563734 0.008252415 0.073293 0.061003853
-0.041236665 -0.07933847 -0.027117977 0.060690407 0.12277593 -0.049441516 0.03958588 -0.005308239
-0.0006341805 -0.04370436 0.0010491542 -0.02529278 0.0020563202 0.018002225 0.06293775 -0.03211154
0.114875965 -0.08286286 0.10985039 -0.012330999 -0.048520096 0.017432082 0.009769121 0.039730523
-0.03586756 -0.075861074 0.06457509 -0.037614435 0.06085704 -0.027973697 0.06853348 -0.023518298
-0.003822351 -0.0070985253 -0.022488832 0.031141121 0.097282104 -0.0535814 0.08797875 0.011158161
-0.004373416 -0.028486626 0.053690527 -0.04037206 -0.0046205963 -0.037777096 -0.012242591 -0.032637235
0.058158692 -0.023316879 -0.069364026 -0.03998354 -0.025976937 -0.016335143 0.030524906 0.039069157
-0.0050346223 0.025748726 0.008837457 0.009788975 0.0535768 -0.079971656 -0.04380175 0.013270716
-0.027077254 -0.04123511 0.031007068 -0.056519795 -0.0006547731 -0.018154548 0.075668514 -0.043768
-0.017806435 0.005763388 -0.008366277 -0.005737312 0.007306826 0.0015316606 -0.06203601 -0.10616381
0.07125318 0.04736285 -0.0027261726 0.06024177 0.020204484 -0.065605454 -0.03951177 -0.010243741
-0.049176067 -0.03312048 0.05270473 -0.014938155 -0.058623105 0.018311324 0.0034730155 -0.07112658
0.052588075 -0.011719408 0.008012328 -0.008553004 -0.048263885 -0.0051867287 0.06166022 0.0632533
0.0059534675 0.010245131 -0.006561919 -0.073350474 -0.028104749 0.10161533 0.009596609 -0.042114634
-0.06162269 0.018204328 0.026045067 0.12617354 -0.016081572 -0.059957735 -0.04548039 0.07380679
-0.010831498 0.041835584 -0.013975667 -0.00948755 -0.008393108 -0.017447444 -0.046997696 -0.055780303
-0.038422637 -0.026762333 -0.0068404563 0.014110671 0.06884431 -0.020219378 0.0013661254 -0.012474925
0.011337513 0.0047396263 0.008352182 -0.030324947 0.054475084 0.033125676 0.051360864 -0.06377493

conv1.bias f4 [128]
00000000: bead c73d 476f a53d 3fe1 b93d f68a bebc
00000010: a4a0 343d 724a 31bc 81f6 7fbd cc14 393d
00000020: 744f 31bd f257 6d3d 184d 1f3d 8196 8f3d
00000030: 082b d33c 5995 963d 2455 733d 3cd3 ebbc
00000040: 3b79 5ebd 94b6 45bd 24b6 793d ebd9 453d
00000050: d07b a63d b4fe 943d 52ff 8b3d e680 3fbd
00000060: ea65 fc3c 579c 6ebd a251 83bd 82b7 733d
00000070: 991a 8abc 786d 9f3d b431 bbbb 3510 803d
00000080: 556e 0d3d b824 383d 64d7 c73d 94b7 c83d
00000090: 77b6 883d 4328 9c3c 0e12 f23c f26e 0e3d
000000a0: 4147 413c b397 703d dca3 95bb 88e5 3ebd
000000b0: 106c 803d 3030 c93d da43 893d cff7 d2bc
000000c0: 1e97 48ba 9f29 b83d e873 6e3d c5e8 df3c
000000d0: cecd 5dbc 125a 033d 09bf 8c3d d56f 743d
000000e0: ae23 683d 6889 e33c 510b 43bc e168 0bbd
000000f0: 1f80 65bd 7136 5ebc 7d2d a83d 2f3d c23d
00000100: bce1 8b3d eae3 863d 9520 36bd 675f 2a3d
00000110: 7e7c 923c fad2 973d 20a1 d83c 2644 9a3c
00000120: 013b 1a3d cc0e 9d3d 58ad f93c 2936 61bd
00000130: 8442 803d be22 b23d 6bd2 1c3d ef4b 893d
00000140: e536 763d 2e42 0abd 0de2 cdbc 8976 a2bc
00000150: 595c 65bd c5de fdbc 5034 0c3d 8217 893d
00000160: 20bc 2bb9 9627 07bd d412 83bd 16f0 8e3d
00000170: c76b 653d 3e60 9e3d 1497 3fbd d10c 373d
00000180: 0eaf 893d 979a 2dbd 087f 9d3d 6000 be3d
00000190: aabb 47bd 38c5 ba3d 816c 383d 0497 533d
000001a0: 3c91 10bd f2ba 8cbc 1ec3 083d f673 3cbd
000001b0: 3757 68bd d59d 683d 9975 bc3c 8875 4c3d
000001c0: 8828 553d 17e7 a83d 7c88 1b3d e8a7 853d
000001d0: 3f19 9c3d db7c 1abd 2669 123d bf78 52bd
000001e0: 929c 6abd 79a9 763d 232f 32bd d048 b63c
000001f0: b767 483d 117e 6d3d 032c 593d d471 8ebd
0.097499356 0.08077865 0.090761654 -0.023259621 0.04409851 -0.010820972 -0.062490944 0.04518585
-0.043288663 0.0579452 0.03889188 0.07011128 0.025777355 0.073527046 0.05940737 -0.028787248
-0.054314833 -0.048269823 0.06096472 0.048303526 0.08129084 0.07275143 0.06835808 -0.046753787
0.030810315 -0.058254566 -0.064120546 0.05950118 -0.016858386 0.077845514 -0.005712712 0.06253091
0.03452905 0.044956893 0.097578794 0.0980064 0.066754274 0.019062167 0.029549625 0.034773774
0.011796773 0.05873842 -0.0045666527 -0.046605617 0.06270611 0.09823644 0.06702395 -0.02575293
-0.0007651913 0.089923136 0.058216006 0.027332673 -0.013537837 0.03206832 0.068723746 0.059676964
0.05667465 0.027775481 -0.0119045535 -0.034035567 -0.05603039 -0.0135627845 0.08211801 0.09484326
0.06830165 0.0658644 -0.044464666 0.04159489 0.017881628 0.074132875 0.026444018 0.018831324
0.037653927 0.07668838 0.030478165 -0.05498329 0.06262687 0.08698033 0.038286608 0.06703936
0.060110945 -0.03375452 -0.025132203 -0.019831913 -0.055996273 -0.030990014 0.034229577 0.06693937
-0.00016377913 -0.032996736 -0.064000756 0.069793865 0.056010988 0.077332005 -0.04677494 0.044689957
0.06722842 -0.042383756 0.07690245 0.09277415 -0.048762955 0.09119648 0.045025352 0.05165769
-0.035294756 -0.017178986 0.033389203 -0.046009026 -0.0567238 0.056791145 0.023005294 0.049916774
0.052040607 0.08247202 0.03797196 0.06526166 0.07622003 -0.037716728 0.03574481 -0.051384684
-0.057278223 0.060220215 -0.043501984 0.022251517 0.048927035 0.057981554 0.05302049 -0.06955305

conv2.weight f4 [128, 2]
00000000: aaba 923e 1490 7ebe c141 64be cd1f 8b3e
00000010: 1451 603e fe49 83be 28bd 2cbc 921f b73b
00000020: 7520 48be 3215 ec3d a26c f6bb dd13 dfba
00000030: 2204 b93d 3f7b 1abd c20c 323e effb 30be
00000040: 440b 93bd 22ab 2d3d ede7 26be 97cc 033e
00000050: fc5e 083e 4d29 38be b458 7bbe 859d 353e
00000060: cbd4 183e 882c 89bd 7896 833e 9f63 54bd
00000070: fbb3 413e 6a4f 7cbe 892c a43d 4602 3cbc
00000080: 5535 353d b4c7 5e3d 7a8f 91bd e181 1dbc
00000090: 4b93 70be 0cb0 ec3d affc 71bd 7a17 2f3e
000000a0: 440f 2f3e cd9f 87be 5285 77be fa5b 0b3e
000000b0: 8925 b73d 92f5 94be a0e5 ba3d c65e 82ba
000000c0: 3461 c5bd 647a 6d3d 12a7 e23b 5c4c 63bc
000000d0: 2cc3 813c 2af7 09bd a5f1 67bd b98b 653e
000000e0: bec2 fc3c 3094 26b9 9630 2dbe 22ec 293e
000000f0: 0832 2abc 3814 64bc 0e64 31be ad2a 243e
00000100: fbbe 333d f9e5 13be 1d0a 89be da10 13bd
00000110: a483 81be ec49 a03e a8bb 353e 1982 a4be
00000120: 3525 21be c808 fc3d 4b19 3abd aa57 4f3d
00000130: de58 063d 1259 eabd 7b28 b3bd 2c55 b93d
00000140: 88ef 243c 6997 633d ecc1 5c3e 166f fbbd
00000150: f8bc f73b 015b 49bb f872 25bd c39f df3b
00000160: a764 c53d 2089 3bbe 39ab a0be 9439 733e
00000170: d146 90bc 798a a13e b1c7 da3b 64c1 0cbc
00000180: 2bfa 953c 06bc c2bc aa58 8abe 1679 7c3e
00000190: 9943 25be 717b 3b3e c1d6 ad3d 8d12 10bd
000001a0: 59d9 093d 3237 4e3c f0fd cebc 78e3 093e
000001b0: df5b 1a3d 8172 70be d18a 01be dd0c 343e
000001c0: 7b75 ad3c 62b3 883e 2bd8 5c3d 038b a4bd
000001d0: a1bc 45bd f7a2 1c3d a28e 52bd 7448 a3bd
000001e0: 7e93 833d 1982 4b3c 0e35 4fbd 28a3 05bd
000001f0: 373f 8dbe 67c6 953e ec2f a6be 9413 a13e
00000200: 85a6 823e 257c e7bd 333b 09be 260a 503e
00000210: 81c3 a83b ea47 ab3d 1440 223e d785 0bbe
00000220: 60f0 863d e57d 3ebc 7627 87be 54ca 6d3e
00000230: 45f9 0ebe 5116 95bb 718c 2bbd e11b 2f3d
00000240: 00ae 7b3d 856b 1bbe 467f 86bc ad07 a83e
00000250: ab1d 8d3d 67c5 15be 91d1 d6bc c8b9 a2bd
00000260: b654 45be f07e 4a3d 0e6b 813e 468a 85be
00000270: 4d10 713d 8a21 01be 7116 98be 03b1 ad3d
00000280: 579a e03d 9fda 0fbe 9086 623d 8d1f c93d
00000290: df51 9f3c 5c3d 81bc 718b e2bb 9c4e f83b
000002a0: 3c41 33bd 3777 ca3c 8c68 a7ba fcc3 d23b
000002b0: 9138 513d 9d38 05be 1f9f 79be 69c1 023e
000002c0: b6b2 37bc caca 3e3c 49f3 1fbc 55d3 41bd
000002d0: 0121 f6bc e475 5b3d 6ce1 8dbe cd6e 273e
000002e0: 6ddd 023d c8e7 8e3e 60e6 473e 543d 97be
000002f0: 73aa 64bc 032c 9bba 539f 10be 105c 453e
00000300: 67ef 783d 4e25 8abe 44f1 69bd 24fa ea3c
00000310: 9059 f0bd a26d 8e3e 69ad 2b3e e376 91be
00000320: 5c23 8e3c 59f6 ac3d 81ac 843e 2627 88bd
00000330: 6297 5fbe 395c 95bb f447 483e 29b4 46be
00000340: 1b73 55bc cbbd 553c abb2 26bc 8572 0ebc
00000350: dbd6 e1bd a52a 963c 77f1 8e3d 3279 22bb
00000360: f8cf 923c 6a0b 90bc c0cf 543e 49ac 0ebe
00000370: c209 9cbd 33f6 963d 60dd c03c ef97 c6bd
00000380: 2b0c 26be b9e7 f83d b9cb 7ebe b170 4f3e
00000390: 79bf 31be e378 033e ef73 823e f622 b3bd
000003a0: 7701 9a3d e01f 7cbe 25f8 843b edcd 753d
000003b0: b1a7 033e 8930 92bd 7a57 643c 87e3 b53d
000003c0: 10c5 90bc c84b 99bc ea46 6bbe 0d9c 1f3e
000003d0: f40f d13c 2572 a13d ed7d 50bd 7b41 353d
000003e0: 378e 6b3d 03c4 33be 1ce7 223e caae 53be
000003f0: 4cca 773e 5272 c4bc 1ee2 34bd cdcb f63c
0.28658038 -0.24859649 -0.22290708 0.271727 0.21905929 -0.2564239 -0.010543145 0.0055884803
-0.19543631 0.1152748 -0.0075202743 -0.001701947 0.090339914 -0.037715193 0.17387679 -0.17283605
-0.07179883 0.042399533 -0.1629941 0.12871014 0.13317484 -0.17984505 -0.24545556 0.1773587
0.14924924 -0.06697947 0.25700736 -0.05185282 0.18916313 -0.24639669 0.08016307 -0.011475151
0.044240315 0.05438967 -0.07107444 -0.009613485 -0.23493688 0.11557016 -0.05907887 0.170988
0.17095667 -0.26489106 -0.24171951 0.13609305 0.08942706 -0.29093605 0.09125829 -0.0009946458
-0.09637681 0.05797805 0.006916889 -0.013873186 0.015840136 -0.03368298 -0.056626935 0.22416581
0.030854579 -0.00015886198 -0.16913065 0.16593984 -0.010387905 -0.013920836 -0.17323324 0.16031905
0.043883305 -0.14443196 -0.26765528 -0.035904743 -0.25295746 0.31306398 0.17747366 -0.32130507
-0.1573685 0.123063624 -0.045434278 0.050620712 0.032799594 -0.1144277 -0.087479554 0.09049448
0.010066874 0.055564318 0.2155835 -0.12277047 0.0075603686 -0.0030724409 -0.040392846 0.006824465
0.096383385 -0.18314028 -0.31380633 0.23752433 -0.017611893 0.3155096 0.006676637 -0.00859103
0.018307766 -0.023771297 -0.2702077 0.24655566 -0.16139068 0.18308808 0.08488227 -0.03517394
0.033654545 0.012586402 -0.025267571 0.13465679 0.03768527 -0.2348118 -0.1265061 0.17583032
0.021174183 0.26699358 0.05391709 -0.08034327 -0.048275594 0.038241353 -0.051405556 -0.07972804
0.06424616 0.012421154 -0.050587706 -0.0326263 -0.27587292 0.2925293 -0.32458436 0.3146025
0.2551767 -0.113029756 -0.13401489 0.20316371 0.005150259 0.08363326 0.15844756 -0.13625275
0.06588817 -0.011626695 -0.26397294 0.23221713 -0.13962276 -0.0045497795 -0.041881982 0.042751197
0.061445236 -0.15177734 -0.01641811 0.32818356 0.06890424 -0.14626084 -0.026222976 -0.07945591
-0.19270596 0.049437463 0.2527699 -0.26082057 0.058853436 -0.1261045 -0.2970462 0.08481028
0.10966938 -0.14048241 0.05530411 0.09820471 0.019448219 -0.015776329 -0.0069135954 0.0075777303
-0.043763384 0.02471505 -0.0012772246 0.0064320546 0.051079337 -0.13009878 -0.24377106 0.12769093
-0.011212042 0.011645028 -0.009762594 -0.047320683 -0.030045034 0.053579226 -0.27711046 0.16350861
0.03194945 0.2791121 0.19521475 -0.29538977 -0.013956654 -0.0011838678 -0.14123277 0.192734
0.060775187 -0.26981586 -0.057114854 0.02868373 -0.11735833 0.27818018 0.1676537 -0.28411016
0.017350845 0.084454246 0.2591286 -0.06648092 -0.21835092 -0.004558113 0.19558698 -0.19404663
-0.013027932 0.013045738 -0.010174434 -0.008694296 -0.110273086 0.018330881 0.069796495 -0.0024791476
0.017921433 -0.017583568 0.20782375 -0.13932909 -0.07619049 0.073711775 0.02354306 -0.09696948
-0.16215579 0.121535726 -0.24882402 0.20257832 -0.17358197 0.12839083 0.25479075 -0.08746903
0.07519811 -0.24621534 0.0040579014 0.06001084 0.12856938 -0.071381636 0.013936872 0.08881288
-0.017672092 -0.018712893 -0.2297627 0.15586872 0.025520302 0.078830995 -0.050901342 0.0442519
0.057508674 -0.17555241 0.15908474 -0.20672145 0.24198264 -0.023980293 -0.044160955 0.030126477

conv2.bias f4 [2]
00000000: 6ca9 183d 52a9 18bd
0.03727095 -0.03727085
